Audio classification/model.pt (torch, 111371 bytes, 26 tensors)

weight f4 [8, 1, 5, 5]
000000 af 7b e3 bd 45 dc 47 be 62 6a 37 be f7 ba d5 3e
       -0.11107575 -0.1951762 -0.17911676 0.41744205
000010 11 cc 21 3e 22 af ce bd 8b dc 87 bd 81 bc dd 3d
       0.15800501 -0.10091998 -0.06633862 0.1082697
000020 48 cd f9 bd c7 2c 1a be 9d af ca bc 53 44 cd 3d
       -0.121973574 -0.15056144 -0.024741942 0.100227974
000030 6e d4 0e bd f7 99 2e bf 4a 99 bf 3d c1 78 7a be
       -0.034870557 -0.6820368 0.093554094 -0.24460126
000040 19 93 17 be 7d a1 df be 3e 06 d1 be c4 16 b0 3c
       -0.14802207 -0.43677893 -0.40825075 0.02149523
000050 c8 96 13 3f b5 0e 9c 3e 07 a5 f6 3d e0 b0 8d 3e
       0.5765195 0.3047997 0.12043195 0.27674007
000060 31 13 c7 bc 74 a7 a0 3b a8 66 ad 3e 3b f6 f0 bd
       -0.024301143 0.0049027745 0.33867383 -0.11765715
000070 73 aa 18 bf 29 91 d0 be f7 dc b5 3d 47 70 2f 3e
       -0.59635085 -0.40735748 0.08880036 0.17132674
000080 e9 80 ba be 55 1a 5d be a9 a4 2e bd 7e 10 e3 bc
       -0.36426476 -0.21592076 -0.0426375 -0.027717825
000090 67 af 15 3e 0c e3 2c be 6f 78 3b 3e 38 90 82 3e
       0.14617692 -0.16883487 0.1830766 0.25500655
0000a0 39 c5 a3 3e 95 01 9e 3e f7 d7 06 3e a3 35 a3 bb
       0.31986406 0.30860582 0.13168322 -0.004980759
0000b0 97 45 8a bd a5 7e 73 be b6 83 b7 bd c9 67 e5 bd
       -0.067515545 -0.2377878 -0.08960669 -0.11201436
0000c0 39 66 a3 3e 22 ea c6 3e f9 c4 21 bf cd 3b b1 bd
       0.31913927 0.38850504 -0.6319118 -0.08653984
0000d0 17 79 7d bc 98 63 e2 3d cb 2b 9f 3d 6b b4 54 3f
       -0.015470765 0.11054152 0.07772025 0.83087796
0000e0 25 e0 8f bd fc 17 ae 3e 66 34 ae 3e df 4a c1 be
       -0.07025174 0.34002674 0.34024352 -0.37752435
0000f0 7a 69 aa 3e 80 f8 d9 3d f4 7c 01 bf f4 49 0b be
       0.33283597 0.10643101 -0.5058129 -0.1360243
000100 99 7b a7 3d 09 b1 1d be 55 13 21 bf 78 14 1e be
       0.08177871 -0.15399565 -0.62920123 -0.15437496
000110 44 ab 77 be bc 84 fa be 79 61 97 3c dc 7f 3c be
       -0.24186426 -0.48929393 0.018479096 -0.1840815
000120 ab 3d 35 bd cc 01 e9 be fc 1e 60 3b 96 51 65 bc
       -0.044248264 -0.45509183 0.0034198156 -0.013996502
000130 7c ec 14 be 16 4f 80 bd d4 5b 6b be 89 3d 9f 3e
       -0.14543337 -0.062650844 -0.22984248 0.31101635
000140 65 d8 28 3e 79 4b b2 3e 90 04 43 3e a1 0c 98 3e
       0.16488798 0.34823206 0.19044709 0.29697135
000150 31 6b d6 3e 9d f7 08 be c8 d2 8c be 7e 54 23 be
       0.41878656 -0.13375707 -0.27504563 -0.159502
000160 c2 e6 b3 be 16 a6 d0 bd 69 1a 8f 3e 09 d6 c8 bd
       -0.35136992 -0.101879284 0.27949837 -0.09806449
000170 40 39 f4 be a9 25 3b be 3a 2e 50 be 8e 43 43 3e
       -0.47699928 -0.18276085 -0.20330134 0.19068739
000180 3d 1f 56 be 82 2f 37 3f a6 60 ae 3e e4 5c 17 3e
       -0.20910354 0.71556866 0.34058112 0.14781529
000190 12 9d 36 bd 7e 7c 03 be c5 f9 1d bf d3 40 c0 bb
       -0.044583388 -0.12840459 -0.61709243 -0.0058671026
0001a0 f9 fa 6d bc 55 76 6e 3d 86 40 b7 bd 01 25 19 3c
       -0.014525169 0.05821832 -0.08947854 0.009347201
0001b0 18 ba 2c 3e 91 63 90 be 73 4f 86 bd 57 65 7a 3e
       0.16867864 -0.28200963 -0.065581225 0.2445272
0001c0 3c b8 bd 3e aa d7 26 3f 63 8d f4 3e 6f c2 db bc
       0.37054622 0.6517283 0.4776412 -0.026826112
0001d0 6b 38 9c 3e 6f 01 8f 3e 1c 4b 0b 3e d1 71 28 3e
       0.30511793 0.2793078 0.1360287 0.16449668
0001e0 3d c1 c7 bd 73 d1 d7 3e fb ed 66 bd 94 3d 94 3e
       -0.09753654 0.42151985 -0.0563793 0.2895323
0001f0 ee 64 a3 3e f7 2a cb bd 5d 4d 08 3e a1 ee 2d be
       0.3191294 -0.09920304 0.13310762 -0.16985561
000200 d4 d9 3a 3e 1a c8 aa 3e fc 3a a3 be a4 c7 45 3e
       0.18247157 0.3335579 -0.3188094 0.19314438
000210 8c 76 fc be 74 c3 ce be cf 57 e3 be d7 9a 28 3d
       -0.49309194 -0.40383494 -0.4440293 0.04116329
000220 51 7e 29 bf 84 49 af 3e a6 54 77 3c ec 55 fd be
       -0.6620837 0.34235775 0.015095865 -0.49479616
000230 86 59 db 3e 2f 6b db 3e a2 c6 61 3b 45 d3 9c 3e
       0.42841738 0.42855212 0.003445067 0.30629936
000240 da 7d a1 3d 3d 13 c7 3e 1c be bc 3e d3 1d 76 bc
       0.078853324 0.38881865 0.36863792 -0.015021759
000250 29 2b 18 3f 71 98 01 bf 9a 5e a6 bc f6 24 2c bd
       0.5944086 -0.5062323 -0.020308781 -0.042027436
000260 36 84 0a bf 50 71 e9 3e d9 5d d4 3e 1f a5 37 3d
       -0.5410799 0.45594263 0.4147785 0.044835206
000270 79 36 93 3e 2b 46 1a bf dd a8 41 be ea ae 42 3f
       0.28752497 -0.6026332 -0.18912072 0.7604815
000280 33 71 a3 be ae cd de be e8 60 cd be 37 da d2 be
       -0.31922302 -0.43516296 -0.40112996 -0.4118211
000290 eb 57 03 bf 4d 7a 0a bf d0 37 10 3f 0b 5a 89 3e
       -0.5130603 -0.54092866 0.56335163 0.2682651
0002a0 ad 68 d7 3b e7 48 91 be d9 8b e2 3e 47 22 8a be
       0.0065737576 -0.28375933 0.4424732 -0.26979277
0002b0 0b d0 cc 3d 82 9f 46 bd 13 15 b3 3e 75 dc 04 bc
       0.100006185 -0.048491962 0.34977016 -0.008109202
0002c0 70 8c d3 3e 2c eb fc 3e 29 df f3 3e 99 4e 01 3f
       0.41318083 0.49398172 0.47631195 0.50510556
0002d0 ad 1e 86 be 73 87 8e be 3f cf 9e 3d c4 48 5e be
       -0.2619528 -0.27837715 0.07754373 -0.21707445
0002e0 a5 cf b4 be a4 f9 e5 3e 31 ec 5f be 3c de 4c be
       -0.3531467 0.44917023 -0.21867444 -0.2000665
0002f0 23 50 db be 05 30 43 3d 06 c4 de bc 9f bf 91 3e
       -0.42834577 0.047653217 -0.02719308 0.28466508
000300 44 7f 11 bc 4f 0c 37 3d a6 88 9c be f2 f2 bb 3d
       -0.00888044 0.044689473 -0.30573004 0.091771975
000310 96 5a f3 bd 95 1f 4f 3e 17 4f 52 3d ae da e2 3e
       -0.11882512 0.20226891 0.051344957 0.44307464

bias f4 [8]
000000 52 2a c0 bc 1c a1 30 3d 1b de 1c be d2 e6 31 bb
       -0.02345768 0.043122396 -0.15319102 -0.0027145636
000010 c7 62 89 bd 9e 77 cc 3d 6e 83 0c 3e 88 88 55 be
       -0.067082934 0.09983753 0.13722011 -0.20852864

weight f4 [8]
000000 34 56 57 3f 24 93 6e 3f bf 35 5e 3f 3a 9f 82 3f
       0.8411591 0.9319327 0.8680076 1.0204842
000010 88 fd 89 3f c1 39 81 3f 33 d4 4b 3f 67 50 95 3f
       1.0780497 1.009575 0.79620665 1.1665162

bias f4 [8]
000000 c8 e0 d9 bc ec 22 a2 3d d8 2c 1c 3d a5 c6 a8 bc
       -0.026596442 0.07916817 0.038128704 -0.020602534
000010 61 0f 1c bd 26 5a 37 bc f7 99 85 bd fd 5c e2 bd
       -0.038100604 -0.011190927 -0.06523507 -0.11052892

running_mean f4 [8]
000000 cf e0 ab 3e 9f b9 54 3e 12 85 27 3f ac 09 8c 3e
       0.33569953 0.20773934 0.65437424 0.2735113
000010 5c a5 66 3f 80 30 81 3e 7c ef 03 3f 45 2e a9 3e
       0.9009607 0.25232315 0.515373 0.33043113

running_var f4 [8]
000000 bb 4f 5a 3e 41 9e 9c 3e 28 1b 02 3f 93 ec 77 3e
       0.21319477 0.30589488 0.5082269 0.2421134
000010 db 2d 59 40 5f 01 ca 3e 72 62 8c 3e 0e 4f f8 3e
       3.3934238 0.3945417 0.27418858 0.48497814

weight f4 [16, 8, 3, 3]
000000 00 3a 5a 3e 35 54 ce bc 01 d0 59 be 0a 85 8a 3e
       0.21311188 -0.025186637 -0.21270753 0.27054626
000010 d8 7c 89 be b0 3c 8e be 1c c6 a3 3e 11 8c 94 3e
       -0.2685306 -0.27780676 0.31987083 0.29013112
000020 81 79 89 3d b8 1c e8 3d 82 ff 9d 3e 6f 5c ed 3d
       0.06712628 0.11333603 0.30859 0.11589896
000030 56 f5 19 bd 1f 70 ea bd 02 6c 9c 3d 04 ba a4 3d
       -0.037587486 -0.11447167 0.07637788 0.08043292
000040 c4 e7 ef bb 30 2a db 3d b5 ff 2e 3e 4b 3f 56 3d
       -0.00732133 0.10701406 0.17089732 0.052306455
000050 63 ba 79 be 72 de f1 3d d2 ac e1 3d 64 25 9c 3e
       -0.24387507 0.11810006 0.11019291 0.30497277
000060 91 68 49 3d 81 49 79 3d dd 95 93 be 25 53 94 be
       0.049171988 0.060861114 -0.28825274 -0.28969684
000070 20 42 c8 be c3 b1 84 bd 73 92 0c be df 15 b4 bd
       -0.3911295 -0.06479218 -0.13727741 -0.08793234
000080 0d 88 cb bd 3a bc d7 be dd 13 d6 3c 25 db 6e 3e
       -0.09938059 -0.42135793 0.026132518 0.23325785
000090 4f a4 a1 bc 59 8a ec 3d 60 f6 ae ba 66 ce 22 3e
       -0.019731669 0.11549825 -0.0013348572 0.15899047
0000a0 95 30 ad 3d cc d6 2a 3e ed c5 2d bd 99 c9 21 bd
       0.08456532 0.16683501 -0.042425085 -0.0394989
0000b0 11 86 4e be da 33 2f be 97 19 3b be 38 e5 8a be
       -0.2016833 -0.17109624 -0.1827148 -0.27128005
0000c0 13 63 ca bd e1 8c 7d be 02 d4 2f 3e 71 7f ab 3e
       -0.09882178 -0.24760772 0.17170718 0.33495668
0000d0 69 0a b2 bd 1e 14 5d 3e 3e ad 56 be 08 d0 d7 bd
       -0.08693392 0.21589705 -0.20964524 -0.10537726
0000e0 22 a2 cc bd 71 d7 d7 3e 0b 3f e8 3d bc 55 bb 3d
       -0.09991862 0.42156556 0.113401495 0.09147212
0000f0 b5 ed 9f bd 40 54 a2 bd ac 12 80 bc 98 94 03 be
       -0.07809011 -0.07926226 -0.015633903 -0.12849653
000100 22 1a db be 92 ca 2d be 92 ca 0a be e2 f5 ff be
       -0.42793375 -0.16971806 -0.13553837 -0.4999228
000110 5b 2d af bd 1c 0a 8f 3e a7 f1 f1 3d a7 74 d6 bd
       -0.08553573 0.279374 0.1181367 -0.104714684
000120 fc 09 8a be 4b 7a dd 3e a8 4a 05 bd d5 be 0b be
       -0.26960742 0.43257365 -0.0325419 -0.13647015
000130 84 e6 98 3d e1 1b 65 be 4d 98 06 3e 96 f5 43 3d
       0.07465842 -0.22373916 0.13144036 0.04784163
000140 c8 05 0a 3e f7 15 99 bd 08 94 20 be 91 6b fb bd
       0.13478768 -0.074748926 -0.1568147 -0.12276376
000150 aa 40 36 bd 64 51 d7 3d 1a b5 94 3d 2d f7 06 3e
       -0.044495262 0.10513571 0.07261105 0.13180228
000160 92 48 cd 3e b0 e8 96 3e ad d0 38 3d 2d 47 8d be
       0.4009443 0.294744 0.045120884 -0.27593365
000170 0a 66 a6 3e 01 c3 8a 3d a4 2f 51 bd 4f 70 e5 3d
       0.32499725 0.06775475 -0.051070824 0.11203062
000180 f3 28 c1 bd f0 b1 67 3d 13 9e 86 3e 98 44 29 3e
       -0.094316386 0.05656618 0.26292476 0.16530073
000190 b3 0d e1 3d be 28 a0 bd 32 21 bd be 13 85 12 be
       0.10988941 -0.07820271 -0.3693939 -0.14308576
0001a0 2d e0 29 3e ed 86 45 3e 64 91 60 bb fb a6 ac 3d
       0.16589423 0.19289751 -0.0034266347 0.084302865
0001b0 8f 0a d7 3e f1 c5 11 bc 62 05 91 bd d7 4d b4 be
       0.42000243 -0.008897291 -0.07081105 -0.35215637
0001c0 ba 67 9e 3c 5f 68 74 bd 44 32 d9 bc b0 f1 95 bd
       0.01933657 -0.05966985 -0.026513226 -0.07321489
0001d0 8a b1 8e 3e ca ed 71 bc e6 47 11 be 37 c2 f3 3d
       0.27869827 -0.014766166 -0.14187583 0.11902278
0001e0 35 39 28 be 0c 55 bf 3d d5 62 ee 3b 64 c8 66 be
       -0.16428073 0.09342393 0.0072749653 -0.2253738
0001f0 74 43 05 be 94 7b 8b bd ef 8e 47 be 4a da 2d 3e
       -0.13014013 -0.0681068 -0.19488119 0.16977802
000200 2f a4 82 bb b4 00 90 bd e9 e4 66 be ba af 3a be
       -0.0039868574 -0.07031384 -0.2254826 -0.18231097
000210 20 f9 5b 3e e2 ef 2c bd 5a a7 17 bc 7b b9 45 3e
       0.21481752 -0.042220958 -0.009256208 0.19309036
000220 72 da 3c 3e 21 61 26 be ef 6d 98 3d c0 fa a9 3d
       0.18442705 -0.16247989 0.07442843 0.0829978
000230 10 6b 24 3c 4b ea 28 3e 39 55 a6 be 43 7a bb be
       0.010035291 0.16495626 -0.32486895 -0.36616716
000240 18 f1 cf 3a 55 ec 56 3e 94 b6 a9 bd 7d 56 85 be
       0.0015864698 0.20988591 -0.08286777 -0.26042548
000250 05 3d 51 be e4 3c 8e be 0d 2f 8a 3e b7 57 a7 3d
       -0.20433433 -0.2778083 0.26989022 0.08171027
000260 6a 12 cf 3e 93 4a 07 be 93 88 4d 3d a5 3b a7 bd
       0.40443736 -0.13212042 0.050179075 -0.08165673
000270 33 29 9e bd a8 15 2e 3e 50 7f 1d 3c 96 b9 72 3d
       -0.07722702 0.17000449 0.009612873 0.05925902
000280 92 3c 51 bd 89 18 c3 bd 07 5d d1 be 04 09 04 3e
       -0.051083155 -0.09526164 -0.40891287 0.12894064
000290 01 5f 0d 3d 8e e6 e6 bd 3c 83 0d be 84 26 39 3e
       0.03451443 -0.112744436 -0.13819593 0.18081099
0002a0 b0 80 81 3d e2 00 9f be dc 67 38 be b7 a0 2d 3d
       0.06323373 -0.3105536 -0.18008369 0.042389598
0002b0 46 57 0b 3e 4f 75 8f 3e 2f ef 3e be 94 39 8b 3e
       0.13607511 0.28019187 -0.18645929 0.27192366
0002c0 5a 4c 49 3e de cc 4c 3d 74 3e f8 bd de b4 20 bf
       0.19658032 0.050000064 -0.12121287 -0.6277598
0002d0 19 e0 ae be 8d 6a e1 bc 05 c8 0f 3e b3 b2 8a 3e
       -0.34155348 -0.027516628 0.14041145 0.27089462
0002e0 67 55 0a 3e 3c 63 1a 3f 62 ff 5e 3e b2 03 66 3d
       0.13509141 0.6030767 0.21777108 0.056155868
0002f0 61 2f 88 3c 5f 19 0e be 98 4c b5 bd 0b 9b 55 be
       0.016624155 -0.13876866 -0.088525 -0.20859925
000300 42 b4 3c bd 57 80 5f be 02 97 1b 3d 7c 08 0f be
       -0.046070345 -0.21826302 0.03798581 -0.1396808
000310 54 71 e8 3e 32 b7 7d 3e c8 d2 90 bd c5 79 37 3d
       0.45398962 0.24776915 -0.07071453 0.044793863
000320 8b ff d9 bd 9e bc 8f 3d 8e bd b7 3e ac 12 ae bd
       -0.10644444 0.07018398 0.35886806 -0.08499655
000330 c1 9c 27 3e 24 92 46 3d 86 33 45 be 76 1f 68 be
       0.1636839 0.048479214 -0.19257936 -0.22668251
000340 4d 22 ec 3d 3b d5 0d be 78 06 bb be 59 12 69 be
       0.1152998 -0.13850872 -0.36528373 -0.22760905
000350 7b c5 ba bd d1 52 46 3d cb 87 15 3e 54 2e c8 bc
       -0.09119698 0.048418824 0.14602582 -0.024436153
000360 12 86 85 3e ea 8e 1c 3d 45 e1 85 3e d2 7a c8 3d
       0.2607885 0.03822223 0.2614843 0.09789051
000370 8a 73 2b be f5 bc 11 be 2f 82 f6 3e f2 e8 03 be
       -0.16743293 -0.14232238 0.48146197 -0.1288183
000380 89 06 0c be b3 20 21 3d 8b 5f a3 be 0e 1c a3 be
       -0.13674368 0.039337825 -0.3190883 -0.31857342
000390 11 27 8f 3e 88 b9 45 be 8f e6 f9 3d 22 8a 38 3e
       0.27959493 -0.19309056 0.12202179 0.18021443
0003a0 b8 72 b1 be de 40 31 3d 36 c5 70 bc b7 0b 85 be
       -0.34657836 0.043274753 -0.014695456 -0.259855
0003b0 40 fc 29 be 52 23 17 3c 93 b8 f6 3c 51 c8 2b bd
       -0.16600132 0.00922473 0.030117309 -0.041939083
0003c0 63 ec 02 3e 37 8d 12 3e cc 3f 87 3d d7 81 bb 3d
       0.12785487 0.14311682 0.06603965 0.09155624
0003d0 8b 7a 6f 3e 0f 1b 96 bd e0 a0 78 be a3 be 1d bf
       0.2338659 -0.0732938 -0.24280119 -0.61619014
0003e0 54 22 fd bd 04 6b 8e be eb bb 13 3d 45 10 30 3e
       -0.12360063 -0.2781602 0.036067884 0.17193706
0003f0 b7 c1 0d 3e ee 37 c7 3d a1 be 90 3b 86 41 be 3d
       0.13843428 0.097274646 0.004417256 0.09289841

bias f4 [16]
000000 4f e0 ea ba 17 39 20 3c 49 ac a5 bd 75 d2 1b bb
       -0.0017919632 0.009779236 -0.080895014 -0.0023776565
000010 77 b5 bc bc c6 10 b3 3d 52 c4 53 be 0d a4 04 be
       -0.023035748 0.08743434 -0.20680359 -0.12953205
000020 e6 93 06 bd 03 c7 87 bd 87 bc b1 bd 14 51 a8 bc
       -0.03285589 -0.06629755 -0.08678537 -0.020546474
000030 6c 91 d3 bd 7c 13 32 be 3b 0b 8f bd 1f 49 4e bd
       -0.103304714 -0.17390245 -0.06984564 -0.050362702

weight f4 [16]
000000 ca f0 4e 3f 1a e8 83 3f 03 cb 7d 3f 96 c1 81 3f
       0.80836165 1.0305207 0.99137896 1.0137203
000010 81 e2 84 3f 75 95 84 3f 62 cf 7a 3f 97 3b 65 3f
       1.0381624 1.0358111 0.9797269 0.8954405
000020 f8 66 72 3f 05 bc 8c 3f 6d 0f 6f 3f 88 d4 7a 3f
       0.9468837 1.0994879 0.9338291 0.97980547
000030 e7 61 83 3f fa db 88 3f 30 04 79 3f 80 88 85 3f
       1.0264252 1.0692132 0.97272015 1.0432281

bias f4 [16]
000000 45 3a 03 3e c1 95 ac 3d ec 48 d3 3c 5e d9 3f 3e
       0.12815197 0.08427001 0.025791608 0.18735263
000010 92 83 17 3e 5e a2 b0 3d 75 55 2a 3e 7d b6 37 3d
       0.14796284 0.08624719 0.16634162 0.04485177
000020 da 6b 93 3e f0 da 0c be 8a ff 02 bd be c0 c8 3b
       0.28793222 -0.13755393 -0.031981982 0.0061264923
000030 bc 2c dd bd 29 a5 4d 3d 24 9b a9 bd 7a a8 49 bb
       -0.10799548 0.050206337 -0.08281544 -0.0030770586

running_mean f4 [16]
000000 9e c9 56 3f 48 64 a8 3e b2 61 9c 3e f2 72 2b 3f
       0.83901393 0.3288901 0.30543286 0.6697227
000010 8a 98 5f 3f 51 18 30 3f 5d 8b c3 3e ad bf a3 3e
       0.8734213 0.68787104 0.38192263 0.31982175
000020 97 db 68 3e be bd 8e 3e a6 c8 fa 3e d5 fc 90 3e
       0.22740017 0.27879137 0.48981208 0.28317896
000030 e8 63 96 3e 69 2b b0 3e 71 9f c3 3e af 0e 58 3e
       0.29373097 0.3440812 0.38207582 0.21099351

running_var f4 [16]
000000 05 9a 34 3f 65 08 8f 3e 3f 12 f2 3e bc 7d 8a 3f
       0.70547515 0.27936092 0.47279546 1.0819621
000010 1b ec 39 3f 61 09 5f 3f 8b e7 34 3f be 47 5e 3f
       0.72625893 0.87123686 0.70665807 0.8682822
000020 0a 13 39 3e 94 f0 ea 3e 01 aa db 3e 07 ac 23 3e
       0.18073669 0.45886672 0.4290314 0.15983592
000030 52 7f be 3e d0 aa d5 3e 1c 0f 86 3f f2 71 94 3e
       0.37206513 0.41731882 1.0473361 0.28993183

weight f4 [32, 16, 3, 3]
000000 26 7b dc bd 08 23 23 3e e8 03 85 3d e7 1b 1d 3c
       -0.10765676 0.15931332 0.06494886 0.009589172
000010 6a 1d 79 3e ab 1a ae bc ae 13 8f bd 67 8f 81 3e
       0.24327627 -0.02125295 -0.069861755 0.2530472
000020 a2 1a 22 be 1d 69 4e 3d 57 0c 90 3d 60 48 0a 3c
       -0.15830472 0.050393213 0.07033604 0.008440107
000030 78 48 c2 3d 3b e0 a6 3d 87 50 c5 bb d5 22 a7 bd
       0.094864786 0.08148237 -0.0060215625 -0.081609406
000040 c1 b5 51 3d 13 0e 3c be 34 00 83 bc 41 6f 80 3e
       0.051198725 -0.18364744 -0.015991308 0.2508488
000050 29 3d ee 3c 7f ce 23 3e 0e 8e a9 3d 90 68 1f 3e
       0.029081898 0.15996741 0.08279048 0.15567231
000060 e9 a9 60 bb b8 a9 83 be c6 fd 91 3d 54 a0 ac bc
       -0.0034280962 -0.25715423 0.071284816 -0.021072544
000070 04 52 ba bd 04 29 2a 3e ae 3e e2 3d 6e 24 29 3d
       -0.090976745 0.16617209 0.110471115 0.041294508
000080 2a d4 ea 3d 1d 8a 0f be 4f 2d 85 be b5 0b 74 bd
       0.11466248 -0.1401753 -0.2601113 -0.059581477
000090 06 51 0d be 89 18 e5 bd e4 df 3c 3e d2 f5 46 bd
       -0.13800439 -0.1118632 0.18444782 -0.048574276
0000a0 d2 80 2f 3e 1d a8 70 be 46 a2 9f 3c 77 2a 42 bb
       0.17138985 -0.2350163 0.019486558 -0.0029627362
0000b0 d6 fc 20 be 6d 11 90 be a2 fd bb bd 8d 7e 30 3d
       -0.1572145 -0.28138295 -0.09179236 0.04308944
0000c0 dc 55 3e 3d f9 b0 7b bc 70 0d 41 3d 47 c9 a7 3d
       0.0464686 -0.015362018 0.047131956 0.081926875
0000d0 87 1a f6 bd a0 57 9c bd eb 8c f0 bd 75 a7 08 bd
       -0.120167784 -0.07633901 -0.11745628 -0.033362824
0000e0 3b 22 c5 3c 58 c5 4a 3e c0 b6 84 3d 9a 82 02 bd
       0.024064174 0.19801843 0.06480169 -0.031862833
0000f0 37 75 57 be 91 7d 9e bd 6e 0d 7e bc 68 7f 12 3d
       -0.21040808 -0.07738794 -0.015506132 0.035766035
000100 bc b4 63 3c 8d 5b 83 bd ff 42 4e 3e 24 9a 11 be
       0.013898071 -0.06413946 0.20142744 -0.14218956
000110 1e fa d7 bd 50 c8 fb 3d f9 6e a6 be e0 72 09 3e
       -0.10545753 0.12294066 -0.3250654 0.13422728
000120 8a 73 59 be 99 f0 42 bc 73 36 6b bd 40 8c 86 bc
       -0.21235481 -0.011898183 -0.057424974 -0.016424298
000130 62 74 1f be 91 88 f5 3d c0 f6 43 3d e7 6b ec bd
       -0.1557174 0.119889386 0.04784274 -0.11544018
000140 c3 3b aa bd 36 bb 0d be 46 77 71 3e a6 2a ef 3d
       -0.0831218 -0.13840947 0.23580655 0.116780564
000150 47 1b ea bd cc f7 ce 3d cf 15 26 bc 32 41 0c be
       -0.11430984 0.10105857 -0.0101370355 -0.13696745
000160 58 ab e5 3d 09 6c 05 3c 14 a4 fd bd 7d d0 3f 3e
       0.11214322 0.008143433 -0.12384811 0.18731876
000170 6e 2b 33 3d 5a 15 2e bd 6a bb 57 bd d9 69 a1 bd
       0.04374259 -0.04250083 -0.052668966 -0.07881517
000180 bf cf 01 bd de 80 1e be 11 96 f2 bc 41 ab db bd
       -0.031692263 -0.15478846 -0.029612573 -0.107260235
000190 99 91 6a be d6 39 9d bd 88 12 d3 3d 40 c6 c8 bd
       -0.22907104 -0.07677047 0.10306269 -0.09803438
0001a0 0e ba 91 bd 16 f5 57 bd 96 e1 eb 3d 5f 12 34 3d
       -0.07115565 -0.052723967 0.115176365 0.043962833
0001b0 40 4a f3 3a 2b 87 d4 3c e3 a7 8e 3c 33 4d 77 bd
       0.0018561557 0.02594336 0.017414039 -0.060376357
0001c0 d0 ce 64 bd af e9 fc bc 15 23 43 3e ed 3d ad bc
       -0.055861294 -0.030873148 0.19056351 -0.021147693
0001d0 54 3f 97 3c 1a 8f 0d 3e bb 27 b2 3e 52 ea e9 bd
       0.018462814 0.1382412 0.34795937 -0.11421646
0001e0 91 b3 87 3d 0d c6 16 be ca f5 ad be b1 07 05 3d
       0.066260464 -0.14723988 -0.33976585 0.03247804
0001f0 89 9d da 3b aa 12 32 3e 6c f9 f6 3d 57 41 40 3c
       0.0066716117 0.17389932 0.12059292 0.011734328
000200 b5 8c 0e 3e 7a 83 da bd 59 49 ce bc 4c f9 16 3e
       0.13920863 -0.106696084 -0.02518146 0.14743537
000210 e7 ef cc 3c 4c af a0 bd 91 43 0d bc 3c 30 8f bd
       0.025016738 -0.07845935 -0.008622066 -0.06991622
000220 da 30 7b 3e ab 95 46 3d 9a 6c 73 bd 50 9c 84 bd
       0.24530354 0.04848258 -0.059429742 -0.06475127
000230 0d db 58 be c4 07 70 bd f2 24 94 3e 36 70 9a 3e
       -0.21177311 -0.058601156 0.28934437 0.30163735
000240 1e 09 52 be dc 2b 0d be 48 87 1a be b6 49 8f be
       -0.2051129 -0.13786262 -0.15090668 -0.27985924
000250 4b db b8 3d f8 20 33 bd 31 8e 36 bd 22 98 16 bd
       0.09026202 -0.043732613 -0.044569198 -0.03676618
000260 a3 f8 01 bd 4a 59 9f be 09 70 19 3e 56 87 72 3e
       -0.03173126 -0.3112281 0.14984144 0.23684439
000270 a8 0c 25 bc 63 e5 0d 3d 00 60 18 3e 52 9e 17 bd
       -0.010073818 0.03464259 0.14880371 -0.03701622
000280 0c 1b dc bd 9a c2 2d be 62 fa 1e 3e a7 fe 2c 3b
       -0.10747346 -0.16968766 0.15525201 0.0026396902
000290 5a f8 f5 3b ee 2e 5a bd e9 e4 25 be de 14 bb 3d
       0.0075064125 -0.053267412 -0.16200604 0.091348395
0002a0 95 bd 74 3e e5 09 6d 3d 17 6b 81 bd 77 30 84 3d
       0.23900445 0.057870764 -0.06319254 0.064545564
0002b0 69 1e 57 be b6 ff 87 bc 8c 57 8a be d8 63 fc bd
       -0.21007694 -0.016601425 -0.27019918 -0.12323731
0002c0 34 76 3f 3e 27 0a 22 bd 88 b0 16 be d0 dd 25 be
       0.18697435 -0.039560463 -0.14715779 -0.16197896
0002d0 67 ae 7d bc 0d a0 24 3e 33 40 c7 3d 21 bb 92 3d
       -0.015483475 0.1607668 0.09729042 0.07164598
0002e0 02 8b dd 3d 75 35 3d bd f3 4b 34 3d f3 0b 4a be
       0.10817529 -0.04619356 0.044017743 -0.19731121
0002f0 28 5b 5b bd 6e 0a 46 3d 95 ff b9 bc c2 96 2b 3d
       -0.05355373 0.04834979 -0.022704879 0.04189182
000300 66 78 21 be 3a f1 d9 bd 64 98 35 3e 70 1d 93 bd
       -0.15768585 -0.106417134 0.17733914 -0.07183349
000310 e7 61 2a 3d cb cd 61 be a7 c6 b5 bd 6e 87 15 3e
       0.041597273 -0.2205116 -0.088757806 0.14602444
000320 ac 7a 9f 3d ef b3 97 be 62 15 6c be 82 3f 08 be
       0.0778707 -0.29629466 -0.23055032 -0.13305476
000330 5b 07 8a be 60 4e 51 bd 52 39 83 3e a6 05 52 bc
       -0.26958737 -0.051100135 0.2562967 -0.0128187295
000340 c8 7e 4d bd f6 3c 40 3d 07 12 01 3c 38 30 a3 bd
       -0.050169736 0.046933137 0.007877833 -0.07968181
000350 4b 43 0c 3e 1b 92 1c be e2 cc 92 be 1d 11 2d 3e
       0.13697545 -0.1529011 -0.28671938 0.1690106
000360 36 d6 5f 3d f7 d4 8f 3d 76 af b6 3d 8c 3c 87 3d
       0.054647647 0.07023042 0.08920185 0.06603345
000370 78 1d 9b 3d e3 6e 9f bd 1b 00 ae bd 44 dc ec bc
       0.0757398 -0.07784822 -0.08496114 -0.028913625
000380 2d 08 45 bd a7 95 6d be 34 e5 37 3d b1 de 74 3e
       -0.0481035 -0.23201619 0.04489632 0.23913075
000390 f7 20 ec bd 4c 32 c2 3d 26 6d 86 3e 2c 4a 6c be
       -0.11529725 0.094822496 0.2625515 -0.2307517
0003a0 9c e4 0c be 6a 72 15 bb a9 c1 2e 3d 49 f0 73 be
       -0.13759083 -0.0022803792 0.042665157 -0.2382213
0003b0 60 3c 69 bc 38 d2 0d 3d d0 db 3f 3e dd 35 c0 3b
       -0.014235586 0.03462431 0.18736196 0.005865796
0003c0 4b 40 2f bd 92 8b 4f 3e 8d ef e1 3d 45 3e 82 bc
       -0.042785924 0.20268086 0.11032019 -0.015898833
0003d0 12 e8 a4 bb cb 45 11 be 7b 35 8b 3e 52 e8 b8 bd
       -0.0050325477 -0.1418678 0.2718924 -0.090286866
0003e0 a6 4c 19 bd 3c a6 1b be d9 b2 bc bd 5e 71 81 be
       -0.037426613 -0.15200132 -0.092138 -0.25281805
0003f0 2b 6c 58 3e 4c a2 26 3e b1 51 ec 3d 9e 65 fb bc
       0.21135013 0.16272849 0.11539019 -0.030688103

bias f4 [32]
000000 a6 38 f7 3c 5e 75 da bd e5 cc a6 bd f3 c1 3f be
       0.03017838 -0.10666917 -0.08144549 -0.1872633
000010 58 b2 72 3c c5 60 df bd 8e 8f f1 bd 03 b7 63 be
       0.014813028 -0.10907129 -0.11794959 -0.22237782
000020 6d c4 8b be 0b c7 b7 bc f6 a5 77 be f6 9a 30 be
       -0.27298298 -0.022433778 -0.24184403 -0.17246613
000030 24 ca 0f be 4d a8 1c be 44 81 0c 3d bc ea 34 be
       -0.14041954 -0.15298577 0.034302965 -0.17667669
000040 f6 85 eb 3c ce c6 19 be ba 6b 49 3d e2 d6 0d be
       0.028750401 -0.15017244 0.049175 -0.13851503
000050 0f ac ea bd 08 a3 d0 bd d5 72 f0 bd 75 c6 e5 3c
       -0.11458599 -0.10187346 -0.117406525 0.028048733
000060 21 eb ed bd ec 08 ab bd 48 93 2f be 73 e4 84 3c
       -0.11617113 -0.08351311 -0.17146027 0.016222214
000070 c7 8e 66 be 53 af c0 bd 2b 18 7b bd 6d 67 33 be
       -0.22515403 -0.094084404 -0.061302345 -0.17519923

weight f4 [32]
000000 32 e0 68 3f 66 af 81 3f 23 d1 83 3f 45 aa 7a 3f
       0.90967095 1.0131652 1.0298198 0.9791606
000010 52 75 5c 3f be e6 79 3f be 2f 78 3f c5 a5 76 3f
       0.86116517 0.9761771 0.9694785 0.96346694
000020 27 55 7e 3f 71 83 60 3f 3e b9 81 3f 0d 03 70 3f
       0.9934868 0.87700564 1.0134656 0.93754655
000030 e5 3d 6f 3f d6 f0 7d 3f 4f 2f 62 3f 49 66 5b 3f
       0.9345382 0.9919561 0.8835344 0.8570295
000040 f6 57 74 3f 1e 56 75 3f 22 f6 69 3f 8e db 6f 3f
       0.9544672 0.9583453 0.91391194 0.9369439
000050 0f c2 75 3f 3c e7 77 3f 59 40 9a 3f cf ec 6d 3f
       0.95999235 0.9683721 1.2050887 0.92939466
000060 8b d3 45 3f f9 0e 84 3f 3a 54 86 3f 68 d9 93 3f
       0.77275914 1.0317069 1.0494454 1.1550722
000070 9c 51 81 3f 77 2a 89 3f fe 65 88 3f 79 84 83 3f
       1.010303 1.0716084 1.0656126 1.0274802

bias f4 [32]
000000 25 87 09 3e a8 ea 69 bd 32 f9 7d be 33 5d 51 bd
       0.1343046 -0.05710855 -0.24802092 -0.051114272
000010 10 8d 99 3e 2d 5f 3d bd 75 da da 3d d3 3f f3 3d
       0.29990435 -0.046233345 0.106861986 0.11877408
000020 a5 c3 ee 3e 5e e4 9b 3e d5 73 1b be bc 81 bb 3e
       0.4663364 0.30447668 -0.15180905 0.36622417
000030 aa 3f c6 3e 97 ef 39 3c fe ac 2c 3d 57 de b9 be
       0.38720447 0.011348627 0.042157166 -0.36302444
000040 c6 c0 88 3e 23 b7 5c 3c 37 a3 bd bc 1f 84 51 bd
       0.26709574 0.013471398 -0.023149116 -0.05115139
000050 d8 0a 3e 3e 01 db a0 3e 3f fc 4d bc 64 1f 9e bd
       0.18558824 0.31417087 -0.012572347 -0.07720831
000060 74 f7 a5 3e bf 93 95 b9 a4 b6 0a 3e 8e 7f e8 3d
       0.32415354 -0.00028529574 0.13546234 0.11352454
000070 5c ec 0e be 92 b5 1c 3d b0 2d 34 3e d7 bb de bd
       -0.13957351 0.038259096 0.17595553 -0.10875671

running_mean f4 [32]
000000 e7 fd ee 3e e3 35 45 3e 48 74 1a 3f 9d fc 80 3e
       0.46678087 0.19258837 0.6033368 0.2519273
000010 85 20 bd 3e ac 83 13 3f 90 53 3e 3f c7 0c 8d 3e
       0.36938873 0.5762279 0.74346256 0.2754881
000020 fd 3e 19 3e c3 df 34 3f 20 b1 28 3e d0 3b de 3e
       0.14965434 0.70653933 0.16473818 0.43405008
000030 20 7d 0b 3f ac 2f a2 3e e3 da f2 3e b7 5d 92 3e
       0.544878 0.31676996 0.47432622 0.28587124
000040 99 d5 b7 3e 1b 14 a4 3e 54 b1 04 3f 1c 65 0d 3e
       0.3590515 0.3204659 0.5183308 0.13808101
000050 9e 7d cf 3e 8a 0a cf 3e ed 5a 2e 3e 54 6a 48 3e
       0.40525526 0.40437728 0.17026873 0.19571811
000060 49 d5 27 3f 21 33 93 3e af 0a 5a 3e 82 f3 67 3f
       0.6555982 0.28749946 0.21293138 0.9060594
000070 d5 7d a7 3e 7c f1 cc 3e 9f 24 4b 3e 46 44 4f 3e
       0.3271319 0.40027988 0.19838189 0.20240888

running_var f4 [32]
000000 97 6a 6e 3f 38 0b a7 3e fe 7d 0e 3f dd 89 ad 3e
       0.93131393 0.32625747 0.55661 0.33894244
000010 2e 0b 02 3f 28 6a f9 3e 21 e6 56 3f 5d 2c 89 3e
       0.5079831 0.48713803 0.839449 0.2679166
000020 ed bb 61 3e 28 c5 cf 3f 72 2a 7b 3e ed d4 cf 3f
       0.22044344 1.6232042 0.2452791 1.6236855
000030 50 81 03 3f b7 88 e5 3e 90 3f 20 3f db e0 ee 3e
       0.5136919 0.44830868 0.6259699 0.46655926
000040 4c 9d f4 3e 45 bc 0a 3f 9a 9c 21 3f c8 68 ab 3e
       0.47776258 0.54193527 0.6312958 0.3347838
000050 98 53 d5 3e 01 37 20 3f 6f 68 24 3f f4 c7 ec 3e
       0.4166534 0.6258393 0.64221853 0.46246302
000060 c2 84 6d 3f 8c 46 73 3f 5f 52 17 3f 79 6f a3 3f
       0.927807 0.9502952 0.59110063 1.2768394
000070 71 42 94 3f a7 4d 3d 3f 91 88 ef 3e ed 7c b2 3e
       1.1582776 0.73946613 0.4678388 0.34860936

weight f4 [64, 32, 3, 3]
000000 f5 60 b2 3d 06 46 58 be d9 cc 3e be 9e e8 74 bd
       0.08709899 -0.21120462 -0.1863283 -0.059792154
000010 a1 9d 37 3c 63 8c 22 3c 41 2a 9e bd 6c 32 95 bd
       0.011207015 0.009921166 -0.07722903 -0.07285008
000020 93 e7 88 b9 78 42 1d 3d 9e ba 40 3e 96 64 3b 3d
       -0.00026112478 0.038393468 0.18821189 0.045750223
000030 73 44 df 3d 13 72 36 3e b5 7b 1c 3e f6 f5 42 3e
       0.109017275 0.17816953 0.15281565 0.19039139
000040 92 f8 97 3c 56 2e 45 3d ba d7 31 bd 52 00 4f be
       0.018551145 0.048139893 -0.043418624 -0.20214966
000050 66 91 6d be 8e 14 9c 3c ab 45 cf 3d cf e0 20 3e
       -0.23199996 0.01905277 0.1012071 0.15710758
000060 ac 1d 1d bd 00 39 1f be 54 63 5b be 62 db e0 3d
       -0.038358375 -0.15549088 -0.2142461 0.10979344
000070 66 54 c3 3d df 28 08 3e 58 14 91 3d 47 bd e7 3d
       0.09537582 0.13296841 0.070839584 0.11315399
000080 16 5f 0d bd 18 66 8b 3c 7d 26 eb 3d 0d 10 4f 3d
       -0.03451451 0.017016456 0.114819504 0.050552417
000090 54 fb 56 be 6b 67 c2 bd fb 53 59 bd 6b e9 cc 3c
       -0.20994312 -0.09492382 -0.053058606 0.025013646
0000a0 6b 56 e6 bc af 9a 37 bd 43 7c a5 3d f0 2c 52 3b
       -0.02811738 -0.044825252 0.08080342 0.0032070242
0000b0 2f cb 41 bd 64 6e 97 3d 42 a2 bc bd 8b b3 45 be
       -0.04731291 0.07394102 -0.09210636 -0.19306771
0000c0 28 41 d2 bb f7 b3 a7 3c 07 9e 1b be 28 57 a3 3c
       -0.0064164586 0.020471556 -0.15197001 0.01993902
0000d0 d6 40 3a 3c ca 0a 18 3d 33 e8 2c 3d 51 ab 5c bd
       0.011367997 0.037119664 0.04221363 -0.053874318
0000e0 0e 40 cf 3d ba e9 37 bd 01 92 24 3e 2c 2a cd 3d
       0.10119639 -0.044900633 0.16071321 0.10017809
0000f0 08 85 c1 3c 68 b7 2a 3d ca 15 90 3d 02 51 c4 3d
       0.023623005 0.041678816 0.07035406 0.095857635
000100 2a 71 41 3d 4e 57 d4 3d 3b dd b8 bd 85 e9 f7 bd
       0.047227062 0.103682145 -0.09026571 -0.12105087
000110 3a cd 4c be b1 c0 bb bd 6f 6d 3b 3e b5 a9 1e 3e
       -0.20000163 -0.09167612 0.18303464 0.15494426
000120 c5 e6 d6 bb 13 5e bb 3d 3b de c6 3d 95 e3 b5 bd
       -0.0065582716 0.091488026 0.09710356 -0.088812985
000130 e8 42 51 be 30 86 70 3d 41 f7 12 be 8c da 70 bc
       -0.20435679 0.05872172 -0.14352132 -0.014700543
000140 65 ab 94 3c 88 dd 2a be 42 06 d4 3d f4 9b 1e be
       0.018148134 -0.1668607 0.10352756 -0.15489179
000150 9d 5b 04 be a9 b5 05 be b5 0b 82 bc 54 dc 31 3c
       -0.12925573 -0.13057579 -0.015874723 0.010855753
000160 95 2f 5e bd 73 48 22 be 2b 2d 40 3d e2 36 3b 3e
       -0.054244597 -0.1584795 0.046918076 0.18282655
000170 e9 0c 61 3d d2 25 c4 3d 96 25 aa bb 69 ea b8 3d
       0.054943953 0.09577526 -0.005192469 0.09029085
000180 6f 7f 81 bd ad e2 a2 3d 3b bd 38 3e 16 47 a5 bc
       -0.06323134 0.07953391 0.18040936 -0.020175498
000190 9c 3a 32 3e a3 77 c6 bc 00 de b6 3d 71 45 d8 bd
       0.1740517 -0.02422697 0.08929062 -0.1056012
0001a0 17 36 cf 3d af 7e 83 bd 4f 19 90 3d fe 14 36 3e
       0.10117739 -0.06420647 0.07036077 0.17781445
0001b0 ea 94 9f 3d 64 46 96 bc fa 60 2a be eb c5 49 be
       0.07792075 -0.018344112 -0.16638556 -0.19704406
0001c0 d2 fa 87 bd 0a 9a 11 3d 67 80 ef 3d 38 91 85 3c
       -0.06639637 0.035547294 0.11694413 0.016304597
0001d0 07 76 6a 3c 95 ec 86 3d 0f 92 84 bd 84 80 be bd
       0.0143103665 0.06588093 -0.06473171 -0.09301856
0001e0 fe f4 1c bd 2f a0 98 bd 86 20 2a bb 20 03 f3 bc
       -0.03831958 -0.074524276 -0.0025959327 -0.029664576
0001f0 f2 16 28 bd 9f 37 1b be 5c 25 42 bd c8 3e 39 be
       -0.041037507 -0.15157937 -0.04739891 -0.18090355
000200 15 60 94 bd 17 78 2a be 2e e1 ff bc 43 6f 55 3d
       -0.07244889 -0.16647373 -0.031235304 0.05210806
000210 69 52 b5 bd 0e 94 ac 3d af d0 1e 3e 77 8c 13 bd
       -0.08853609 0.08426677 0.15509294 -0.03602263
000220 b4 e0 c9 3c 3f 1b cd 3a fe f0 86 bd 68 ff c2 3d
       0.02464328 0.0015648379 -0.06588934 0.09521371
000230 5b ed 2d bd 27 1a 1f bd 21 4f be bd 0a 08 91 3e
       -0.042462688 -0.0388433 -0.092924364 0.28326446
000240 a4 4c 4a 3d 24 7a fb bd 82 84 90 bd 6b b4 3a 3c
       0.049389496 -0.12279156 -0.07056524 0.011395554
000250 70 9b ab bb 87 9b 2a 3e 23 ba 56 bd 05 f3 f9 bd
       -0.0052370355 0.16660891 -0.052423608 -0.122045554
000260 fb 42 2b be 75 ba 71 3e c0 d4 ae 3d 89 eb aa bd
       -0.1672477 0.23606284 0.085366726 -0.08345706
000270 27 80 b6 bd 65 b3 a5 bd 8c 4d ce 3d 05 4d 24 3e
       -0.08911162 -0.080908574 0.10073385 0.16045006
000280 ad a1 85 3d b3 6c 28 39 79 e4 4c 3d 6c 2f 7e 3d
       0.06524978 0.00016062222 0.050022576 0.062056944
000290 b2 9c 58 bd 97 1f 16 3e ac d9 9d bd 26 74 f6 bd
       -0.05288381 0.14660488 -0.07707533 -0.12033872
0002a0 dd bf 14 bc 16 9a 31 3e 45 5a 49 3d 01 28 b1 3d
       -0.009078947 0.17343935 0.049158353 0.08650208
0002b0 d7 92 ce bc f1 d7 0f 3c 1c c0 b6 bd c5 74 4d 3c
       -0.025216503 0.008779512 -0.08923361 0.012540047
0002c0 48 eb 87 3d 3f b3 80 3c 97 bb 62 3d 5d 8d 78 bc
       0.06636673 0.015710471 0.05535468 -0.015170422
0002d0 92 f6 d6 3d e6 b6 10 3e 73 78 07 be d8 74 35 bc
       0.10496248 0.1413227 -0.13229541 -0.011075221
0002e0 52 25 b8 3d f2 83 9d bd 7b 48 f2 ba 23 8e 9c bb
       0.08991493 -0.07691182 -0.0018484736 -0.004777686
0002f0 32 2e d6 3d df ee a1 3d 3c c9 f1 3b d2 26 61 be
       0.1045803 0.07906889 0.0073787253 -0.21987465
000300 a4 71 33 3d c9 7b 31 bc 8b 79 90 3d a3 72 c7 3c
       0.043809548 -0.010832735 0.070544325 0.024346655
000310 9c 21 32 3d b0 38 18 be c2 fe db 3b c4 61 0d be
       0.043489084 -0.14865375 0.006713719 -0.13806826
000320 27 fb d9 3d e6 7d 5f 3e ca 33 99 3e 50 79 2a 3d
       0.10643607 0.2182537 0.29922324 0.0416196
000330 25 09 ef bc 8b 57 d0 bd 89 24 7f bd c3 30 63 3d
       -0.029179165 -0.101729475 -0.062290702 0.055466425
000340 2a e1 53 bd 6b 43 28 be a6 ac a2 3c 30 eb c2 3d
       -0.051728405 -0.16431968 0.019857716 0.09517515
000350 4f 50 41 be e8 d7 90 3d b5 54 86 bd aa 4c 9d bd
       -0.18878292 0.07072431 -0.06559125 -0.07680638
000360 f3 57 28 bd 0b c2 bc bd 96 1a 9c bd 33 e0 41 bd
       -0.0410995 -0.09216698 -0.07622258 -0.047332954
000370 6d 88 e8 3d b1 9e c8 bc a6 4b ba 3b 36 85 47 bd
       0.11354146 -0.024489732 0.0056852875 -0.048711024
000380 a3 29 09 be d8 96 19 be e8 95 ef bd 7e cd 9a bd
       -0.1339479 -0.14998949 -0.11698514 -0.07558726
000390 7c 8c cc 3c 9d 8c 0f bd 54 13 e3 3d 36 e4 0f be
       0.024969332 -0.03504621 0.11087671 -0.140519
0003a0 f5 dd 03 be 5b 80 0d bd ba 27 ac bc 07 c2 34 3d
       -0.12877639 -0.034546237 -0.021015037 0.04413035
0003b0 43 c9 6e 3c aa 02 10 3c d4 74 29 be fc 75 ed bd
       0.014574352 0.008789698 -0.16548473 -0.11594769
0003c0 94 06 ad 3d f4 10 fa bd 38 b5 28 bd 82 69 0b 3d
       0.0844852 -0.12210265 -0.04118845 0.034036167
0003d0 aa 77 a4 bd 6b 5a 7f 3d 42 a8 62 3d aa f8 b5 3d
       -0.080306366 0.06234209 0.055336244 0.088853195
0003e0 ec d8 da 3d 65 88 28 be cc 38 00 be 73 45 0c be
       0.10685906 -0.1645828 -0.12521666 -0.13698368
0003f0 88 a2 50 bd 76 0b 21 3d 87 84 1c bd 67 ed cf bd
       -0.050936252 0.03931757 -0.038212325 -0.10152703

bias f4 [64]
000000 cd 7c 36 be dc a8 15 be cb 17 dc bd 8f 6d 08 be
       -0.17821045 -0.14615196 -0.10746726 -0.13323043
000010 ee 87 c1 bd d9 d3 85 bd aa 48 22 be 5f 4d e7 bd
       -0.09449755 -0.06534547 -0.15848032 -0.11294054
000020 55 48 57 be 2b 3c e3 bd b2 b8 30 be 37 73 57 be
       -0.21023686 -0.110954605 -0.17257956 -0.21040045
000030 6a d8 cc bd ad fb 6d bd 26 80 ac bd 77 3e e3 bd
       -0.10002215 -0.058101345 -0.0842288 -0.110958986
000040 4c 4e 07 be 4f 47 41 be 50 5d 13 be 10 78 de bd
       -0.13213462 -0.18874858 -0.14391065 -0.10862744
000050 49 d4 1f be f7 96 80 be c3 f2 5f be 31 86 6f be
       -0.15608324 -0.25115177 -0.2186995 -0.23391034
000060 b1 8e e9 bd b4 67 2b be 13 d0 cd bc f0 e8 09 be
       -0.11404169 -0.16738778 -0.025123632 -0.13467765
000070 5e 4e 73 bd d8 bf 44 be 04 17 6e be d0 54 fa bd
       -0.05940091 -0.19213808 -0.23250967 -0.12223208
000080 12 f5 28 be 13 92 74 be 01 54 5e be a4 4b a6 bd
       -0.16499737 -0.23883848 -0.21711732 -0.08119896
000090 17 26 bc bd 0a c8 1e be 00 e7 6a be 63 47 64 be
       -0.091869526 -0.15505996 -0.22939682 -0.22292857
0000a0 79 9f d0 bd c1 f7 4f be 24 3d a3 bd c8 3b 29 be
       -0.10186667 -0.20309354 -0.07970646 -0.16526711
0000b0 73 ce 3c be 22 19 45 be 97 0a 0f be 45 97 b6 bd
       -0.18438129 -0.19247869 -0.13968883 -0.08915571
0000c0 47 3a c5 bd a2 b8 31 be 5d 2d 55 be 43 74 17 bd
       -0.09630256 -0.17355588 -0.20818086 -0.03697611
0000d0 11 da 6b bd da 59 0b be 0d 5e dc bd a6 7d 28 be
       -0.05758101 -0.13608494 -0.10760126 -0.16454181
0000e0 5c 90 27 be e3 2c cb bd 2d 14 54 be e8 cd 6c be
       -0.16363662 -0.09920671 -0.20710821 -0.23125422
0000f0 68 e7 1f be 68 43 7a be c0 4c f2 bd 75 08 9b bd
       -0.15615618 -0.24439776 -0.11831045 -0.075699724

weight f4 [64]
000000 37 27 94 3f ae 80 8e 3f 7c 89 ba 3f 3a f6 a7 3f
       1.1574467 1.113302 1.4573207 1.3122017
000010 44 95 c1 3f 9a 49 a0 3f d9 87 ae 3f 15 86 b7 3f
       1.5123677 1.2522461 1.3635207 1.4337794
000020 46 ce a5 3f d1 cf a9 3f 3d fd b8 3f e2 76 be 3f
       1.2953575 1.3266546 1.4452282 1.488003
000030 7b db a4 3f f5 9e a8 3f 6c 49 a5 3f 48 1a ac 3f
       1.287948 1.317351 1.2913032 1.344552
000040 26 a7 b4 3f 1a 10 ba 3f 0f 88 ae 3f 46 5a a5 3f
       1.411351 1.4536164 1.3635272 1.2918174
000050 33 17 a9 3f b7 d8 be 3f 47 49 a7 3f 04 87 ad 3f
       1.3210205 1.4909886 1.3069237 1.3556828
000060 52 34 ae 3f 85 ef ad 3f f2 09 9f 3f 8b 6b aa 3f
       1.3609717 1.358872 1.242491 1.331407
000070 16 68 9f 3f c6 dd b8 3f fa 0e b3 3f ac 8c af 3f
       1.245364 1.444268 1.3988945 1.3714805
000080 0f 15 bc 3f 98 cd c8 3f a6 50 bb 3f da 49 b7 3f
       1.4693927 1.5687742 1.4633987 1.4319413
000090 49 a8 b5 3f 74 d9 b3 3f 51 95 c0 3f 56 67 b8 3f
       1.4191982 1.4050736 1.5045568 1.4406536
0000a0 0d ed a5 3f 75 28 af 3f 7b 38 a6 3f f2 0b ba 3f
       1.2962967 1.3684222 1.2985986 1.4534895
0000b0 74 f4 ae 3f 2c dc c5 3f af 57 a6 3f e5 5d 90 3f
       1.3668351 1.5457816 1.2995509 1.1278654
0000c0 f4 7c 9e 3f 09 da b8 3f 9c 9a ae 3f 6c 36 91 3f
       1.2381883 1.4441539 1.3640933 1.1344733
0000d0 49 fc ac 3f 78 d6 ac 3f 98 68 c0 3f d2 c3 c9 3f
       1.3514491 1.3502951 1.503192 1.5762885
0000e0 aa 44 b3 3f 08 05 b0 3f 60 ed bb 3f e8 cb b2 3f
       1.400533 1.3751535 1.4681816 1.3968477
0000f0 c9 78 ba 3f ef f6 9f 3f e8 ef a1 3f c6 df b3 3f
       1.4568111 1.2497233 1.2651339 1.4052665

bias f4 [64]
000000 cd 77 2a 3d 61 db 19 3d 55 e5 4d 3d ba 8c 40 3d
       0.041618157 0.03756273 0.050267536 0.047009207
000010 c3 4a 3f 3d c0 32 1c bd e0 fe 46 3d 5a 22 1d bd
       0.046702158 -0.038134336 0.04858291 -0.03836284
000020 af 2e 22 bd 44 78 24 bd 90 68 30 bd b0 e8 29 bd
       -0.039595302 -0.040153757 -0.04306847 -0.041481674
000030 c7 af 41 3d 13 fe 43 3d 9e 4a 45 3d 69 a4 1e bd
       0.047286775 0.047849726 0.048166864 -0.038731012
000040 46 1a 46 bd 28 65 28 bd a7 9e 3f 3d 77 63 3d 3d
       -0.0483649 -0.041112095 0.046782162 0.046237435
000050 91 68 41 3d 67 e0 43 3d 18 e9 40 3d e6 a5 40 3d
       0.047218863 0.04782143 0.047097296 0.047033213
000060 f7 00 24 bd 7e 94 35 3d 72 ee 17 bd 98 b8 4e 3d
       -0.040039983 0.044331066 -0.037092634 0.05046901
000070 d5 9b 20 bd f6 1d 3c 3d 96 0d 24 bd 9f 7e 45 3d
       -0.039211113 0.04592701 -0.04005202 0.04821646
000080 56 bb 49 3d 3f 6f 34 bd 99 6d 4f 3d 01 ad 52 3d
       0.049250923 -0.044051405 0.05064163 0.05143452
000090 65 db 63 3d 1e e4 1b bd c8 4d 4a 3d 7f 0a 53 3d
       0.055629153 -0.038059346 0.049390584 0.05152368
0000a0 53 73 21 bd 36 43 40 3d e4 8f 3b 3d 54 37 50 3d
       -0.039416622 0.046939097 0.04579152 0.050834015
0000b0 66 63 3a 3d af 29 3f 3d 58 ab 25 bd 26 c0 21 3d
       0.04550495 0.046670612 -0.04044661 0.039489888
0000c0 2e 7e 1a bd 54 e2 29 bd 4e 31 43 3d aa 4b 22 bd
       -0.03771799 -0.04147561 0.047654442 -0.03962294
0000d0 67 b5 1d bd 0e 41 32 3d a8 35 2f bd d1 7d 47 3d
       -0.038503077 0.043519072 -0.04277578 0.048703972
0000e0 ef 3d 2f bd f3 9a 29 bd 00 8c 43 3d 60 c4 42 3d
       -0.042783674 -0.041407537 0.047740936 0.04755056
0000f0 c5 2b 49 3d bd e6 0c 3d 4f 44 1f bd 3f 6a 45 3d
       0.049114008 0.034399737 -0.038883504 0.048197027

running_mean f4 [64]
000000 e0 16 3e 3e 6e 69 e0 3e 3e 3e 51 3e f2 2d 2b 3e
       0.18563414 0.43830436 0.204339 0.16716745
000010 c8 93 0d 3e dd e8 77 3e 85 e1 07 3e f7 16 31 3e
       0.13825905 0.24209924 0.13269623 0.17293917
000020 07 ba 0f 3e 83 0e 65 3e 23 ab 0f 3e fe d3 9b 3d
       0.14035808 0.22368817 0.14030127 0.07608794
000030 64 10 ef 3d 36 13 05 3e c2 d0 88 3e 36 db c7 3d
       0.11673048 0.1299561 0.2672177 0.09758608
000040 6a 78 56 3e 31 ff 94 3d a4 c0 60 3e 0f 5c 71 3e
       0.20944372 0.072752364 0.21948487 0.23570274
000050 8b c8 ff 3d bb 6f 02 3e 38 d4 12 3e 5d 45 36 3e
       0.124894224 0.12737934 0.14338768 0.17799897
000060 f9 92 26 3e 65 d8 8c 3d 73 d4 df 3e fc 24 81 3e
       0.16267003 0.068772115 0.43716773 0.2522353
000070 4c 73 44 3e ac b4 18 3e ac c0 28 3d a0 f0 7b 3e
       0.19184607 0.14912671 0.04119937 0.2460351
000080 e4 e6 d1 3d 80 10 32 3d 0e 9f 2c 3d 5e b1 3f 3e
       0.10249117 0.043472767 0.042143874 0.18720004
000090 bf 5c 02 3e f7 f8 0a 3e 9b 25 12 3e bb c8 1e 3e
       0.12730692 0.13571535 0.14272158 0.1550626
0000a0 f6 c0 1d 3e 61 0a 87 3e ec c2 31 3e f4 99 0e 3e
       0.1540564 0.26375106 0.17359513 0.13925916
0000b0 bf 19 51 3e 39 12 30 3e 08 64 41 3e 99 b5 ec 3e
       0.20419978 0.17194451 0.18885815 0.46232298
0000c0 55 62 2e 3e 14 ce f0 3d 6d 14 21 3e 83 49 73 3f
       0.17029698 0.11758056 0.15730448 0.95034045
0000d0 a1 1a 79 3e 28 63 ba 3d ab 28 06 3e 94 46 21 3e
       0.24326564 0.09100944 0.13101451 0.1574958
0000e0 08 88 56 3d 21 8f 34 3e 1b 03 5b 3e 50 c0 8d 3e
       0.052375823 0.17632724 0.21387903 0.27685785
0000f0 0d 26 89 3d ad ce 35 3e 9c f2 0d 3e ad 15 04 3e
       0.06696711 0.17754622 0.1386208 0.12898894

running_var f4 [64]
000000 81 9e 0a 3f 40 d2 f9 3e 26 96 1a 3f 89 b2 03 3f
       0.5414811 0.4879322 0.6038536 0.514443
000010 da 01 d0 3e d3 6d 4b 3f 80 b9 c3 3e 11 2e 34 3f
       0.40626413 0.79464453 0.38227463 0.7038279
000020 47 29 b2 3e 7f b0 0c 3f 4a 68 d5 3e d5 8a 2b 3e
       0.34797117 0.5495681 0.4168113 0.16752179
000030 ec fa 19 3e c3 72 02 3e af c3 2b 3f ec 1c 6d 3e
       0.15037125 0.1273909 0.67095464 0.23155564
000040 d3 ac 31 3f bb 12 45 3e 53 3d 47 3f 7e 21 12 3f
       0.69404334 0.19245426 0.7782795 0.57082355
000050 7c 46 c7 3e a5 8d a5 3e cb e1 90 3e e5 88 e1 3e
       0.38920963 0.3233463 0.28297266 0.44049755
000060 43 87 09 3f c9 1c c2 3d 2f 6a ed 3f 8f d3 44 3f
       0.5372202 0.094781466 1.854803 0.7688531
000070 ea 8c bb 3e 13 ee f6 3e 14 8c 91 3d b4 52 5f 3f
       0.36630946 0.4822851 0.07106796 0.8723557
000080 3b a3 8d 3e df b2 a2 3d aa 35 70 3d c5 f8 24 3f
       0.27663597 0.07944273 0.058644928 0.6444209
000090 b3 cc 43 3e 5b d5 cc 3e 6c 46 d1 3e b5 5f f7 3e
       0.19121055 0.40006527 0.4087404 0.48315206
0000a0 68 65 b0 3e 9d 63 63 3f 57 4c 04 3f 42 26 bb 3e
       0.34452367 0.8882387 0.51678985 0.36552626
0000b0 5d 4f 32 3f c7 49 0a 3f 05 43 a7 3e b0 d5 0e 3f
       0.6965235 0.54018825 0.3266832 0.5579481
0000c0 88 dd bf 3e 81 b9 a3 3e f1 1d f4 3e 01 a6 47 40
       0.37473702 0.31977466 0.47679093 3.119507
0000d0 7c 51 21 3f 0d 4f 3f 3e 40 69 c7 3e 8e 61 13 3f
       0.6301496 0.18682499 0.38947487 0.5757073
0000e0 9d 56 c1 3d 51 c9 98 3e 7f 0e 3f 3f 90 7f 79 3f
       0.09440348 0.29841092 0.74631494 0.9746027
0000f0 be 28 3b 3e 3f 17 82 3e 99 ee a6 3e 88 c2 aa 3e
       0.1827726 0.2540836 0.3260391 0.3335154

weight f4 [2, 64]
000000 5b 63 8d 3e cf 0f 63 3e 91 0e f7 3e 44 c4 b9 3e
       0.27614865 0.22173999 0.482533 0.3628255
000010 98 62 f1 3e e7 8e 9b be 51 6d c3 3e ab ca 95 be
       0.47145534 -0.30382463 0.3816934 -0.29256186
000020 ab 18 ae be cf 6b bc be 9e 21 94 be 26 ad e6 be
       -0.34003195 -0.36801 -0.28931898 -0.45053977
000030 dc 80 79 3e a5 80 ab 3e 78 0a c1 3e 94 4a 9e be
       0.24365562 0.33496585 0.377033 -0.30916274
000040 cb 97 a3 be c0 cf f1 be cb 1d e4 3e a3 65 b2 3e
       -0.31951746 -0.47228813 0.4455398 0.34843168
000050 8f 7b d6 3e 9b 68 04 3f d4 0d c2 3e d7 3c b8 3e
       0.41891143 0.51722115 0.37901175 0.35983917
000060 e7 5e 97 be 87 54 9e 3e fb 06 9b be a4 6f 77 3e
       -0.29564592 0.30923864 -0.30278763 0.24163681
000070 d5 d5 c0 bd 43 65 f8 3e bd 52 c6 be f7 b4 cc 3e
       -0.09415785 0.48514757 -0.38735 0.39981815
000080 56 04 02 3f dc 50 cf be 43 52 b9 3e 9b e1 a0 3e
       0.50787866 -0.40491378 0.36195573 0.31422123
000090 a0 0a c6 3e e2 ce d1 be 69 d0 c2 3e e6 77 8f 3e
       0.3867998 -0.40978152 0.3804963 0.28021163
0000a0 57 47 91 be cb c2 b8 3e 6f 20 94 3e 94 f8 ef 3e
       -0.2837474 0.36086115 0.28930995 0.46869338
0000b0 10 a2 de 3e 4d 60 f2 3e 04 47 b4 be fe 4c 35 3e
       0.4348302 0.47339097 -0.3521043 0.17705151
0000c0 c0 55 66 be d2 eb c1 be 00 c2 c3 3e 8d 31 4d be
       -0.22493649 -0.3787523 0.38233948 -0.20038433
0000d0 63 aa c4 be 56 20 a9 3e 97 0e 9b be 48 4e 0a 3f
       -0.38411245 0.33032483 -0.3028457 0.540257
0000e0 24 46 a6 be da cc 7c be 83 47 eb 3e e0 04 d4 3e
       -0.32475388 -0.2468752 0.45952997 0.4140997
0000f0 2e 24 d3 3e e1 fc 4a 3e 60 25 a1 be b8 7d b8 3e
       0.4123854 0.19823028 -0.31473827 0.36033416
000100 c2 62 49 be 2e a8 ad bd 0f 50 ae be 1f 71 c2 be
       -0.1966658 -0.08479343 -0.34045455 -0.3797693
000110 d5 c2 12 bf df 00 94 3e 7c 54 82 be bf 4a 90 3e
       -0.5732854 0.28906915 -0.2545508 0.28182027
000120 52 71 9e 3e c5 61 8a 3e 62 4e cf 3e 74 f4 db 3e
       0.30945832 0.27027717 0.4048949 0.4295994
000130 dc 77 a5 be 22 3d 89 be 09 a2 52 be 44 ed b6 3e
       -0.32318008 -0.26804453 -0.20569624 0.35727894
000140 06 3c 6a 3e 6c cf b2 3e fc 14 c1 be 03 11 95 be
       0.2287446 0.34923875 -0.37711322 -0.2911454
000150 a2 01 d8 be 78 f9 02 bf 6c 3f 95 be 6d a5 aa be
       -0.42188746 -0.5116191 -0.2914995 -0.33329335
000160 da ec bb 3e 34 d2 c5 be 8e 61 6e 3e 42 e0 aa be
       0.3670414 -0.38636935 0.23279402 -0.3337422
000170 10 06 96 3e ca f2 c4 be 1c 6f c7 3e cb dd d3 be
       0.293015 -0.38466483 0.38951957 -0.41380152
000180 e1 37 d9 be 01 7b 01 3f fe d7 e2 be e0 b8 fd be
       -0.42425445 0.50578314 -0.44305414 -0.4955511
000190 f0 1a 7b be d2 23 91 3e 12 21 06 bf d8 40 f4 be
       -0.24521995 0.2834764 -0.5239421 -0.47705722
0001a0 c1 37 90 3e 2c c0 ea be 06 26 b2 be 99 18 c6 be
       0.28167537 -0.4584974 -0.34794635 -0.38690642
0001b0 a4 8b 8f be 3b 35 1b bf bb 99 a9 3e 45 3b 0b be
       -0.28036225 -0.606281 0.331251 -0.13596828
0001c0 2e 53 9c 3e c9 6e 9a 3e 5d 15 64 be 7b a0 5a 3e
       0.3053221 0.30162647 -0.22273774 0.21350281
0001d0 da 75 b3 3e d9 a4 af be 3d 98 ee 3e 25 f8 fd be
       0.3505085 -0.34305456 0.46600524 -0.49603382
0001e0 65 dd 93 3e b6 a7 aa 3e c1 93 f5 be 8b 02 cb be
       0.28879848 0.33331078 -0.4796429 -0.39650378
0001f0 67 d6 df be fc 9b 70 be a2 35 9d 3e be ba e0 be
       -0.43718264 -0.23497003 0.3070498 -0.43892473

bias f4 [2]
000000 28 8b 91 bd 70 c6 af bd
       -0.0710662 -0.08582771
